…
        12,
        12,
        12,
        12,
        12,
        12,
        12,
        12
    ]
}
2022-05-05 04:51:13,845 - INFO - Experiment set up.
2022-05-05 04:51:17,399 - INFO - TempPointConv2(
  (relu): ReLU()
  (sigmoid): Sigmoid()
  (hardtanh): Hardtanh(min_val=0.020833333333333332, max_val=100)
  (msle_loss): MSLELoss(
    (squared_error): MSELoss()
  )
  (mse_loss): MSELoss(
    (squared_error): MSELoss()
  )
  (bce_loss): BCELoss()
  (main_dropout): Dropout(p=0.45, inplace=False)
  (temp_dropout): Dropout(p=0.05, inplace=False)
  (empty_module): EmptyModule()
  (diagnosis_encoder): Linear(in_features=293, out_features=64, bias=True)
  (bn_diagnosis_encoder): MyBatchNorm1d(64, eps=1e-05, momentum=0.1, affine=True, track_running_stats=True)
  (bn_point_last_los): MyBatchNorm1d(17, eps=1e-05, momentum=0.1, affine=True, track_running_stats=True)
  (bn_point_last_mort): MyBatchNorm1d(17, eps=1e-05, momentum=0.1, affine=True, track_running_stats=True)
  (point_final_los): Linear(in_features=17, out_features=1, bias=True)
  (point_final_mort): Linear(in_features=17, out_features=1, bias=True)
  (layer_modules): ModuleDict(
    (0): ModuleDict(
      (temp): Conv1d(174, 1044, kernel_size=(4,), stride=(1,), groups=87)
      (bn_temp): MyBatchNorm1d(1044, eps=1e-05, momentum=0.1, affine=True, track_running_stats=True)
      (point): Linear(in_features=241, out_features=13, bias=True)
      (bn_point): MyBatchNorm1d(13, eps=1e-05, momentum=0.1, affine=True, track_running_stats=True)
    )
    (1): ModuleDict(
      (temp): Conv1d(1400, 1200, kernel_size=(4,), stride=(1,), dilation=(3,), groups=100)
      (bn_temp): MyBatchNorm1d(1200, eps=1e-05, momentum=0.1, affine=True, track_running_stats=True)
      (point): Linear(in_features=1298, out_features=13, bias=True)
      (bn_point): MyBatchNorm1d(13, eps=1e-05, momentum=0.1, affine=True, track_running_stats=True)
    )
    (2): ModuleDict(
      (temp): Conv1d(1582, 1356, kernel_size=(4,), stride=(1,), dilation=(6,), groups=113)
      (bn_temp): MyBatchNorm1d(1356, eps=1e-05, momentum=0.1, affine=True, track_running_stats=True)
      (point): Linear(in_features=1454, out_features=13, bias=True)
      (bn_point): MyBatchNorm1d(13, eps=1e-05, momentum=0.1, affine=True, track_running_stats=True)
    )
    (3): ModuleDict(
      (temp): Conv1d(1764, 1512, kernel_size=(4,), stride=(1,), dilation=(9,), groups=126)
      (bn_temp): MyBatchNorm1d(1512, eps=1e-05, momentum=0.1, affine=True, track_running_stats=True)
      (point): Linear(in_features=1610, out_features=13, bias=True)
      (bn_point): MyBatchNorm1d(13, eps=1e-05, momentum=0.1, affine=True, track_running_stats=True)
    )
    (4): ModuleDict(
      (temp): Conv1d(1946, 1668, kernel_size=(4,), stride=(1,), dilation=(12,), groups=139)
      (bn_temp): MyBatchNorm1d(1668, eps=1e-05, momentum=0.1, affine=True, track_running_stats=True)
      (point): Linear(in_features=1766, out_features=13, bias=True)
      (bn_point): MyBatchNorm1d(13, eps=1e-05, momentum=0.1, affine=True, track_running_stats=True)
    )
    (5): ModuleDict(
      (temp): Conv1d(2128, 1824, kernel_size=(4,), stride=(1,), dilation=(15,), groups=152)
      (bn_temp): MyBatchNorm1d(1824, eps=1e-05, momentum=0.1, affine=True, track_running_stats=True)
      (point): Linear(in_features=1922, out_features=13, bias=True)
      (bn_point): MyBatchNorm1d(13, eps=1e-05, momentum=0.1, affine=True, track_running_stats=True)
    )
    (6): ModuleDict(
      (temp): Conv1d(2310, 1980, kernel_size=(4,), stride=(1,), dilation=(18,), groups=165)
      (bn_temp): MyBatchNorm1d(1980, eps=1e-05, momentum=0.1, affine=True, track_running_stats=True)
      (point): Linear(in_features=2078, out_features=13, bias=True)
      (bn_point): MyBatchNorm1d(13, eps=1e-05, momentum=0.1, affine=True, track_running_stats=True)
    )
    (7): ModuleDict(
      (temp): Conv1d(2492, 2136, kernel_size=(4,), stride=(1,), dilation=(21,), groups=178)
      (bn_temp): MyBatchNorm1d(2136, eps=1e-05, momentum=0.1, affine=True, track_running_stats=True)
      (point): Linear(in_features=2234, out_features=13, bias=True)
      (bn_point): MyBatchNorm1d(13, eps=1e-05, momentum=0.1, affine=True, track_running_stats=True)
    )
    (8): ModuleDict(
      (temp): Conv1d(2674, 2292, kernel_size=(4,), stride=(1,), dilation=(24,), groups=191)
      (bn_temp): MyBatchNorm1d(2292, eps=1e-05, momentum=0.1, affine=True, track_running_stats=True)
      (point): Linear(in_features=2390, out_features=13, bias=True)
      (bn_point): MyBatchNorm1d(13, eps=1e-05, momentum=0.1, affine=True, track_running_stats=True)
    )
  )
  (point_last_los): Linear(in_features=2985, out_features=17, bias=True)
  (point_last_mort): Linear(in_features=2985, out_features=17, bias=True)
)
2022-05-05 04:51:17,401 - INFO - number of parameters: 1151428
2022-05-05 04:51:17,401 - INFO - Experiment started at 22-05-05_04:51:17.
2022-05-05 05:05:03,231 - INFO - Train Metrics:
2022-05-05 05:05:03,233 - INFO - ==> Length of Stay:
2022-05-05 05:05:35,504 - INFO - Custom bins confusion matrix:
2022-05-05 05:05:35,505 - INFO - [[1142070  715204  153668   48698   19508    9201    5058    2876    4958
…
